autoencoder/outputs/svd_ae_output_20260109_2329/20260109_2329_best_model_weights.pt (torch, 9261 bytes, 11 tensors)

encoder.0.weight f4 [16, 6]
0.050321143 0.417912 0.22983141 -0.27159056 0.047433913 0.06672834 0.37692723 0.076756604
-0.2737895 -0.42237097 -0.43722355 0.00038379082 0.043296486 -0.39991066 0.021764694 -0.14305313
0.20311876 -0.11500771 -0.013036513 0.39555934 0.09216609 -0.12905876 -0.41343302 -0.4123538
-0.19567281 -0.2806584 -0.18825054 -0.38948393 -0.34820378 0.07029234 -0.10290789 0.42516923
-0.49557966 -0.27811956 0.16699763 -0.29343006 -0.01898216 0.26971537 -0.2005251 0.49415052
0.28992608 0.39170304 0.191177 -0.33789116 -0.01824682 0.22520241 0.1332029 0.028547663
0.39318877 -0.2341951 -0.18254864 0.4535057 0.055043757 -0.049468957 0.187273 0.06621936
0.12149607 -0.0099967085 -0.013801632 -0.07671002 0.4913962 -0.29789782 0.0064992392 0.48714164
0.19796908 -0.21236138 0.2814607 -0.20574456 0.23345116 0.16178884 0.2965875 -0.20654476
0.15310052 0.20318292 0.15645124 0.17394276 -0.4097907 -0.40206102 0.38438743 -0.42998162
0.016571416 -0.27512276 0.18136258 0.41252163 -0.07521678 0.0020510769 -0.18877801 -0.21885602
-0.1777229 -0.16166319 0.49690768 -0.17079976 0.24019948 0.19240257 -0.20946628 -0.17371824
00000000: 8b1d 4e3d 90f8 d53e ed58 6b3e eb0d 8bbe
00000010: 104a 423d dea8 883d 9bfc c03e 9132 9d3d
00000020: 232e 8cbe 0241 d8be c4db dfbe 8837 c939
00000030: a857 313d 17c1 ccbe df4b b23c 857c 12be
00000040: 5dfe 4f3e 2a89 ebbd 1997 55bc c186 ca3e
00000050: 93c1 bc3d fb27 04be 7ead d3be 0a20 d3be
00000060: 745e 48be 75b2 8fbe c0c4 40be 706a c7be
00000070: c447 b2be 6ef5 8f3d 5fc1 d2bd c8af d93e
00000080: 9ebc fdbe b065 8ebe 6d01 2b3e 773c 96be
00000090: 7a80 9bbc 2218 8a3e 7456 4dbe 4c01 fd3e
000000a0: 3171 943e 4d8d c83e e7c3 433e 1200 adbe
000000b0: 5b7a 95bc 769b 663e 5766 083e cadc e93c
000000c0: 0a50 c93e d7d0 6fbe 08ee 3abe e631 e83e
000000d0: 9075 613d f69f 4abd 7ec4 3f3e 049e 873d
000000e0: eed2 f83d 3cc9 23bc 3e20 62bc 251a 9dbd
000000f0: 4898 fb3e 1086 98be 92f7 d43b a16a f93e
00000100: 68b8 4a3e 4375 59be 9e1b 903e b4ae 52be
00000110: d20d 6f3e f9ab 253e 51da 973e 7880 53be
00000120: 62c6 1c3e 2f0f 503e c134 203e 0d1e 323e
00000130: 16d0 d1be f1da cdbe 6ece c43e 8d26 dcbe
00000140: c7c0 873c e4dc 8cbe 1db7 393e 0936 d33e
00000150: 410b 9abd 5c6b 063b 064f 41be cb1b 60be
00000160: fefc 35be 098b 25be af6a fe3e 22e6 2ebe
00000170: daf6 753e 2e05 453e 547e 56be 32e3 31be

encoder.0.bias f4 [16]
-0.04537862 -0.0029994624 -0.2200107 0.21604513 -0.20085058 0.10771841 -0.10096466 0.10119408
0.13652274 -0.3174287 0.14913327 -0.20037742 -0.14273706 -0.114846595 0.4834493 -0.35051367
00000000: efde 39bd a192 44bb 7c4a 61be ef3a 5d3e
00000010: c6ab 4dbe 789b dc3d 8fc6 cebd d83e cf3d
00000020: 9ecc 0b3e 0486 a2be 64b6 183e bd2f 4dbe
00000030: aa29 12be b134 ebbd ab86 f73e 8776 b3be

encoder.3.weight f4 [16, 16]
-0.029422343 -0.058579415 -0.23467465 -0.051775604 0.24302337 -0.18965623 0.059328306 -0.0017464722
-0.08750637 0.014063686 -0.03345017 0.070666954 -0.011044972 0.018172143 -0.26943132 -0.1150752
0.12520504 -0.029316634 -0.24105033 -0.24220064 -0.052935183 -0.032046374 -0.03403836 -0.08932197
-0.14024624 0.029417932 -0.15654376 0.14663866 0.13182038 -0.15354058 -0.09835699 -0.1089665
0.038078614 0.13703787 0.27698946 -0.22423501 -0.17676267 -0.29138955 0.110263765 0.2563634
0.09123284 0.21800618 0.3823565 0.26927534 0.15626496 0.11674005 -0.007402948 0.26725408
-0.22565778 -0.06614014 0.094076045 -0.04367615 -0.034042854 -0.29901645 0.18728825 0.2761896
0.13252859 -0.047929164 0.2328936 -0.08513739 0.05060767 0.2220003 0.11118009 0.3148957
0.031818636 -0.03585002 -0.21213937 0.036912277 -0.077452995 0.008993535 -0.02362841 -0.01389957
-0.054074157 0.0747833 0.11113811 -0.12256643 -0.07336911 0.2898882 0.09008659 -0.21826512
0.21400274 0.2186134 -0.1727496 0.3856105 0.09091934 0.37683555 0.15016136 -0.20985013
-0.22457878 -0.18851526 -0.04801068 -0.06520941 0.0059584663 -0.03610059 0.2942209 0.029355977
0.29913735 0.29995242 -0.15661754 0.20594288 0.2154105 0.35957068 0.06300506 0.005259389
0.025046928 -0.054533582 -0.15694098 -0.14752859 0.10731766 -0.13827544 -0.05857842 0.067540444
-0.17222996 0.14422484 0.08497334 -0.33807814 -0.113763295 0.10883356 -0.04685176 0.3310373
0.25828058 -0.17529164 0.3460117 -0.00012911648 0.0022944035 0.20037712 -0.090417966 -0.14853898
0.030635588 -0.038601972 0.22734457 0.09435644 0.12992825 -0.1418397 -0.024256885 0.11623647
-0.07843967 -0.02429668 -0.007934134 -0.12725452 -0.2707534 0.2718163 -0.071939506 0.06054747
-0.17021169 -0.006015903 0.09886414 -0.07737805 -0.046720516 -0.113570705 -0.07613453 0.10893203
0.1057522 0.13883694 -0.10777516 0.10666018 -0.096165486 -0.15159778 0.016420577 0.1245326
-0.21762212 0.2441174 0.004538119 -0.2054139 -0.15542026 -0.042692345 0.23084867 0.27424398
0.1274355 -0.012677448 0.21150339 -0.05672589 -0.10927344 0.34444556 -0.15888521 0.22140554
0.08104528 0.10346008 -0.08603993 0.09545298 -0.22440322 -0.025929026 0.20873629 0.21994942
0.30372027 0.113788225 0.10360164 0.35558343 -0.016102968 -0.033265222 -0.2785742 -0.022055889
0.06178221 0.3672109 0.07062118 0.36980373 0.18156521 0.2685953 0.14353994 -0.07047398
0.11658083 0.18921888 -0.21720505 0.17934832 0.22617914 -0.26638916 0.37718838 -0.12716514
0.058918048 0.23072706 0.17436378 0.15046693 -0.007169346 0.016957061 0.078860156 -0.2884825
-0.14024714 0.08292378 -0.22466905 -0.21333176 0.33848923 0.07354164 0.011696612 0.23605157
0.16539471 -0.024597198 -0.21080916 -0.19275595 0.0037481152 -0.22945602 -0.15419856 -0.12513657
-0.1915531 0.12674433 0.24844605 0.03370677 -0.18146499 -0.07607363 0.24290772 0.17929581
0.10853019 -0.0020818252 0.24501732 -0.19152436 -0.09495577 -0.2985061 0.24209738 0.32070866
0.31371802 0.21382187 0.102798134 0.21595307 0.15032429 0.16024528 -0.034169275 0.24683672
00000000: 2007 f1bc f8f0 6fbd 8d4e 70be a812 54bd
00000010: 1edb 783e 3e35 42be 3d02 733d e2e9 e4ba
00000020: 8a36 b3bd 606b 663c 0c03 09bd d6b9 903d
00000030: f8f5 34bc bfdd 943c e7f2 89be 8cac ebbd
00000040: c035 003e 7029 f0bc e6d5 76be 7203 78be
00000050: 90d2 58bd 0f43 03bd cf6b 0bbd 70ee b6bd
00000060: b69c 0fbe e0fd f03c 024d 20be 7228 163e
00000070: ecfb 063e be39 1dbe 646f c9bd d429 dfbd
00000080: 52f8 1b3d a853 0c3e 90d1 8d3e dd9d 65be
00000090: 4601 35be 0331 95be f8d1 e13d 1042 833e
000000a0: 49d8 ba3d 033d 5f3e 3bc4 c33e 75de 893e
000000b0: ec03 203e 6815 ef3d 6e94 f2bb 87d5 883e
000000c0: d512 67be 7b74 87bd f1aa c03d c3e5 32bd
000000d0: 8570 0bbd af18 99be 7ec8 3f3e b968 8d3e
000000e0: 93b5 073e 5f51 44bd a97b 6e3e 835c aebd
000000f0: fd49 4f3d 0c54 633e 63b2 e33d 023a a13e
00000100: 4254 023d 78d7 12bd 103b 59be 5431 173d
00000110: ad9f 9ebd 9f59 133c 5e90 c1bc 06bb 63bc
00000120: dd7c 5dbd fd27 993d 619c e33d 1c04 fbbd
00000130: 8b42 96bd 3a6c 943e 517f b83d e480 5fbe
00000140: 8923 5b3e 31dc 5f3e 45e5 30be bd6e c53e
00000150: eb33 ba3d 97f0 c03e e6c3 193e f4e2 56be
00000160: fbf7 65be 250a 41be d9a6 44bd 838c 85bd
00000170: 3d3f c33b 36de 13bd 1fa4 963e f27b f03c
00000180: 8828 993e 5d93 993e 5960 20be b1e2 523e
00000190: 9294 5c3e a619 b83e cc08 813d f456 ac3b
000001a0: 372f cd3c 9b5e 5fbd 23b5 20be bc11 17be
000001b0: 5cc9 db3d 1498 0dbe edef 6fbd a552 8a3d
000001c0: 0d5d 30be adaf 133e 8106 ae3d 9418 adbe
000001d0: bbfc e8bd 21e4 de3d a2e7 3fbd b97d a93e
000001e0: 5a3d 843e a77f 33be 7228 b13e 7163 07b9
000001f0: b45d 163b a92f 4d3e 0e2d b9bd 9a1a 18be
00000200: 7cf7 fa3c 1a1d 1ebd 04cd 683e f33d c13d
00000210: e90b 053e 6d3e 11be 60b6 c6bc 630d ee3d
00000220: faa4 a0bd d509 c7bc 2cfe 01bc 024f 02be
00000230: 31a0 8abe 822b 8b3e 0555 93bd a000 783d
00000240: f94b 2ebe 0d21 c5bb 4879 ca3d 6278 9ebd
00000250: 035e 3fbd c297 e8bd 6cec 9bbd c217 df3d
00000260: 9c94 d83d 452b 0e3e 39b9 dcbd a770 da3d
00000270: 69f2 c4bd 733c 1bbe 7284 863c f30a ff3d
00000280: 55d8 5ebe e9f9 793e 80b4 943b 0558 52be
00000290: 7d26 1fbe 2bde 2ebd 9863 6c3e b569 8c3e
000002a0: 747e 023e 12b5 4fbc 5894 583e 6859 68bd
000002b0: c1ca dfbd 2b5b b03e ceb2 22be 22b8 623e
000002c0: 11fb a53d e1e2 d33d b435 b0bd da7c c33d
000002d0: f5c9 65be 1c69 d4bc f7be 553e 6c3a 613e
000002e0: 3981 9b3e cd09 e93d 192d d43d 080f b63e
000002f0: 5fea 83bc 1d41 08bd 47a1 8ebe 8dae b4bc
00000300: 580f 7d3d 1103 bc3e d6a1 903d ea56 bd3e
00000310: 3bec 393e 5385 893e 22fc 123e a954 90bd
00000320: eec1 ee3d 98c2 413e 006b 5ebe 16a7 373e
00000330: 819b 673e 2964 88be d61e c13e 9437 02be
00000340: 0d54 713d b743 6c3e 6b8c 323e 0114 1a3e
00000350: d5ec eabb 89e9 8a3c 6f81 a13d fab3 93be
00000360: f29c 0fbe f1d3 a93d a50f 66be a473 5abe
00000370: 764e ad3e 009d 963d 26a3 3f3c 81b7 713e
00000380: 3b5d 293e 1080 c9bc 5bde 57be d161 45be
00000390: f0a2 753b 85f6 6abe 3ae6 1dbe cd23 00be
000003a0: 7f26 44be 44c9 013e a468 7e3e 1c10 0a3d
000003b0: f5d1 39be 7ecc 9bbd cdbc 783e 5299 373e
000003c0: 1445 de3d 3b6f 08bb d2e5 7a3e f61e 44be
000003d0: 2c78 c2bd cbd5 98be 60e8 773e ed33 a43e
000003e0: a69f a03e 1ff4 5a3e d487 d23d cd22 5d3e
000003f0: 9cee 193e 5717 243e 15f5 0bbd c4c2 7c3e

encoder.3.bias f4 [16]
-0.05144853 -0.21076009 0.047579862 0.031783756 -0.11495759 0.2950641 0.1029885 -0.021607433
-0.0010541838 -0.21097592 0.07206196 0.11625813 0.036326237 0.13178723 0.2002928 -0.016316883
00000000: b2bb 52bd 7ed1 57be 1ae3 423d af2f 023d
00000010: e36e ebbd a412 973e a2eb d23d 1202 b1bc
00000020: 8a2c 8aba 120a 58be 3995 933d be18 ee3d
00000030: d2ca 143d 3bf3 063e 8e19 4d3e fcaa 85bc

fc_enc.weight f4 [1, 16]
0.16045892 -0.11204834 -0.1633891 -0.0596721 -0.11670066 0.3066689 0.34651697 -0.13603336
-0.10013094 0.15624619 -0.39100093 -0.1599392 0.35116708 0.28575402 0.039538097 -0.30703768
00000000: 584f 243e 9a79 e5bd 794f 27be bb6a 74bd
00000010: c100 efbd b503 9d3e ac6a b13e 544c 0bbe
00000020: 7311 cdbd 00ff 1f3e 4631 c8be 1ac7 23be
00000030: 2ccc b33e 5a4e 923e b3f2 213d 0b34 9dbe

decoder.0.weight f4 [16, 1]
-0.36317325 -0.23485911 0.859341 -0.09564047 -0.70166177 0.19395481 0.2472179 0.84088504
-0.35011432 0.22945833 0.7581284 0.80163854 0.9144586 0.93568146 -0.7481051 0.030857861
00000000: d8f1 b9be e87e 70be c6fd 5b3f 27df c3bd
00000010: 1ba0 33bf 179c 463e b026 7d3e 3e44 573f
00000020: 2f42 b3be 20f7 6a3e b414 423f 2f38 4d3f
00000030: f519 6a3f d288 6f3f d183 3fbf a0c9 fc3c

decoder.0.bias f4 [16]
-0.70865774 -0.20131409 -0.16503172 0.61050504 0.93973666 0.73693824 -0.5909939 -0.42025757
0.2698415 0.3887675 0.91132104 -0.53589267 0.1972455 -0.8328459 0.5323392 -0.89680696
00000000: 986a 35bf 4825 4ebe 13fe 28be 0f4a 1c3f
00000010: 9592 703f fca7 3c3f 604b 17bf 002c d7be
00000020: aa28 8a3e 890c c73e 564c 693f 4330 09bf
00000030: b9fa 493e 6435 55bf 6247 083f 2495 65bf

decoder.3.weight f4 [16, 16]
-0.15362674 -0.17110717 0.12678221 0.15530571 0.076116495 -0.22093225 0.022968993 0.04022515
-0.23843664 -0.039408796 -0.030770492 0.22341529 0.09900148 -0.13531518 -0.17968744 0.24184182
-0.030713558 0.037432313 0.23058936 0.009204648 -0.06307286 -0.060286433 0.06717041 0.044648856
0.16835499 -0.055503428 -0.009149812 0.20512313 -0.102311045 -0.035268813 -0.24469173 0.24739322
0.06254032 -0.22942534 -0.008818527 0.020628886 -0.15647371 -0.041441564 0.18609998 0.24037597
-0.34365582 0.19757737 0.24204889 -0.111407876 0.19674934 0.19399488 -0.12075921 0.20110592
-0.11164525 -0.114901155 -0.09116107 -0.18025962 -0.20214108 -0.11933842 -0.014263719 -0.039441943
-0.14115366 0.12871268 0.2497741 0.0046298467 -0.13594073 -0.24033514 0.2425054 0.23772225
0.030208558 0.00557762 0.20653263 0.03227222 0.24698588 -0.14956814 -0.13142759 0.0030529574
0.12766477 -0.09757179 0.06076762 0.04724574 -0.18975723 -0.04589787 -0.07787526 -0.13793978
0.09668088 -0.16154948 -0.18926206 -0.0022354703 0.01091405 0.12067059 0.11920223 0.13091314
0.15702027 -0.2318402 -0.15265343 0.09688917 -0.21442819 -0.13232273 0.07596901 0.190204
-0.19687593 0.11722946 -0.2469673 0.07298413 0.26325792 0.26373383 -0.005905941 0.09430088
0.260033 0.068650685 0.08465056 -0.086485304 -0.11811251 -0.012256774 0.120723866 0.038412064
0.1409097 -0.19831997 0.37800515 -0.041579068 -0.14671595 0.07233124 0.11503813 0.099919364
0.026620733 -0.104673974 0.26946273 -0.092730716 0.25791228 0.15599892 -0.12528396 -0.030221552
0.11793101 -0.18933725 -0.100083746 -0.022416873 -0.06338635 0.22053951 -0.03743249 -0.27089047
0.0037727724 -0.08686321 0.08699626 0.035275284 -0.03633294 0.20506366 0.2784332 0.012539089
0.0316478 -0.17283544 0.30220073 0.007518927 0.04282356 -0.1077112 -0.1712031 0.22504203
-0.23826928 0.11307133 0.21214852 -0.07899169 -0.06789275 -0.14822882 -0.16365913 -0.09045401
-0.119190186 0.0384835 0.13134716 -0.024605483 0.1926764 0.25436115 -0.032931447 0.019471984
0.23780972 -0.2352957 -0.15930612 -0.06707186 0.12620404 -0.035699777 0.18097071 0.044599473
0.06294626 0.113111764 -0.00044047166 -0.21036702 0.16928703 -0.006351961 0.23620051 0.054576017
0.11004673 0.22473003 0.15086603 -0.10082304 0.116682366 0.17766196 0.019044153 0.03621787
0.12119886 0.15127712 -0.11705066 0.07720679 0.15938018 0.08624419 0.21288687 0.0759509
0.07953681 0.16459279 0.13537972 0.27016857 0.21366422 -0.20517567 -0.22874957 -0.13695422
0.1219095 0.13786086 0.16616812 -0.08917149 -0.0609594 0.033568136 0.18851957 -0.066726096
-0.1165238 0.27555966 0.105760194 -4.2708834e-05 -0.1312481 0.08855411 0.09619756 0.06775054
-0.23999465 -0.18410671 0.107943445 0.20207506 0.17645893 -0.255488 0.13948998 0.04802142
-0.2897973 -6.4797945e-07 0.20941809 0.08849364 0.13381998 -0.00039522775 -0.1243625 -0.0005340497
-0.049701482 0.058827847 0.21629399 -0.123773366 0.018724337 -0.22488993 -0.032022446 -0.20820358
-0.06715295 0.2462292 -0.23305264 0.23063728 -0.122443914 -0.16518402 -0.09996629 0.10510036
00000000: 5450 1dbe b836 2fbe 32d3 013e 7608 1f3e
00000010: f7e2 9b3d 103c 62be 7829 bc3c 20c3 243d
00000020: bc28 74be 1e6b 21bd 6612 fcbc fac6 643e
00000030: 4ac1 ca3d 1090 0abe fcff 37be 62a5 773e
00000040: 009b fbbc a052 193d 9e1f 6c3e 18cf 163c
00000050: 582c 81bd e8ee 76bd a490 893d b8e1 363d
00000060: 4065 2c3e 9057 63bd 18e9 15bc cc0b 523e
00000070: 7488 d1bd 0876 10bd 7890 7abe a654 7d3e
00000080: 2415 803d 7aee 6abe 957b 10bc e9fd a83c
00000090: a53a 20be a1be 29bd fe90 3e3e 1e25 763e
000000a0: a8f3 afbe b951 4a3e aadb 773e d029 e4bd
000000b0: a978 493e 98a6 463e 9b50 f7bd b6ee 4d3e
000000c0: 44a6 e4bd 4c51 ebbd a8b2 babd fa95 38be
000000d0: 12fe 4ebe b467 f4bd 60b2 69bc e08d 21bd
000000e0: 968a 10be 42cd 033e c8c4 7f3e f8b5 973b
000000f0: 0c34 0bbe 6a1a 76be 5653 783e 766d 733e
00000100: f077 f73c 78c4 b63b 4a7d 533e e02f 043d
00000110: dee9 7c3e 6428 19be f494 06be 2014 483b
00000120: 8eba 023e b8d3 c7bd 78e7 783d c084 413d
00000130: b84f 42be 68ff 3bbd 107d 9fbd 1640 0dbe
00000140: a000 c63d 3a6d 25be eacd 41be f880 12bb
00000150: d8d0 323c 2422 f73d 4c20 f43d 180e 063e
00000160: ecc9 203e 8467 6dbe 2e51 1cbe d46d c63d
00000170: 1093 5bbe 9c7f 07be a495 9b3d d6c4 423e
00000180: d899 49be 0016 f03d ffe4 7cbe b478 953d
00000190: bec9 863e 1f08 873e a086 c1bb d220 c13d
000001a0: 0c23 853e bb98 8c3d 465d ad3d 351f b1bd
000001b0: f9e4 f1bd a3d0 48bc 133e f73d f855 1d3d
000001c0: a24a 103e 6414 4bbe e489 c13e d04e 2abd
000001d0: b53c 16be 6722 943d 1c99 eb3d 86a2 cc3d
000001e0: b913 da3c 4f5f d6bd 05f7 893e 9ae9 bdbd
000001f0: 140d 843e 2ebe 1f3e 704a 00be 3093 f7bc
00000200: d085 f13d a0e1 41be b5f8 ccbd 97a3 b7bc
00000210: b4d0 81bd 1cd5 613e d052 19bd 28b2 8abe
00000220: 9e40 773b 57e5 b1bd 182b b23d d17c 103d
00000230: d9d1 14bd 35fc 513e cc8e 8e3e c070 4d3c
00000240: 20a1 013d c6fb 30be 0eba 9a3e 5561 f63b
00000250: c267 2f3d b197 dcbd de4f 2fbe 6b71 663e
00000260: ddfc 73be f191 e73d 763d 593e 65c6 a1bd
00000270: 5b0b 8bbd 4cc9 17be 4296 27be f43f b9bd
00000280: fc19 f4bd e0a0 1d3d df7f 063e 7091 c9bc
00000290: f64c 453e a03b 823e 20e3 06bd b683 9f3c
000002a0: 6484 733e 5bf1 70be 2521 23be f95c 89bd
000002b0: a23b 013e ee39 12bd 6350 393e f0ad 363d
000002c0: f8e9 803d 24a7 e73d 1bef e6b9 746a 57be
000002d0: 9459 2d3e 1c24 d0bb 8cde 713e 1a8b 5f3d
000002e0: 2e60 e13d a11f 663e a07c 1a3e 4f7c cebd
000002f0: 2af7 ee3d 04ed 353e 7c02 9c3c 3059 143d
00000300: 1c37 f83d 64e8 1a3e 42b8 efbd 981e 9e3d
00000310: 8f34 233e cba0 b03d 04ff 593e 258c 9b3d
00000320: 32e4 a23d 038b 283e fba0 0a3e 8953 8a3e
00000330: cbca 5a3e 9219 52be 543d 6abe ba3d 0cbe
00000340: b0ab f93d 662b 0d3e fa27 2a3e 8b9f b6bd
00000350: 90b0 79bd be7e 093d 460b 413e b1a7 88bd
00000360: 08a4 eebd 2816 8d3e cd98 d83d 4322 33b8
00000370: e765 06be db5b b53d 3a03 c53d ccc0 8a3d
00000380: 28c1 75be 7886 3cbe 7411 dd3d c4ec 4e3e
00000390: a6b1 343e 53cf 82be 76d6 0e3e 1cb2 443d
000003a0: 5060 94be cff0 2db5 b271 563e 273c b53d
000003b0: 1b08 093e 9236 cfb9 c4b1 febd 78ff 0bba
000003c0: c893 4bbd 78f5 703d 2c7c 5d3e e47c fdbd
000003d0: c863 993c 8c49 66be f829 03bd 5233 55be
000003e0: 7c87 89bd 8223 7c3e 5aa5 6ebe 2e2c 6c3e
000003f0: e0c3 fabd 0026 29be 20bb ccbd dc3e d73d

decoder.3.bias f4 [16]
-0.070497766 -0.10468504 -0.09805089 -0.17410117 -0.24680233 -0.12068969 -0.072863206 -0.17020844
0.22297546 0.07782786 0.0073223235 -0.04836995 0.16037288 0.17080125 -0.20803511 0.16554368
00000000: 2261 90bd 1c65 d6bd e8ce c8bd 9447 32be
00000010: c0b9 7cbe 282c f7bd 4e39 95bd 1f4b 2ebe
00000020: ae53 643e 3764 9f3d 1af0 ef3b 921f 46bd
00000030: ca38 243e 86e6 2e3e 2807 55be 4884 293e

decoder.6.weight f4 [6, 16]
-0.21890256 -0.14932537 -0.28776115 -0.23168588 0.11182225 -0.13503414 0.20197988 -0.27682614
-0.101286106 -0.17297576 0.07802277 0.07330888 0.12416599 0.2504587 -0.033611044 0.06617603
0.10812587 0.04269287 0.041313317 -0.18524078 -0.19520882 -0.113862365 -0.037286513 0.27265328
-0.2261916 0.26986983 -0.14787865 -0.12057028 0.049144816 -0.10632577 0.18023215 0.092035204
-0.12907921 0.0151672065 0.10820459 0.19102994 0.23116857 -0.15749449 -0.015713828 0.046592996
0.03469546 0.056090884 0.07278047 -0.21458155 -0.08572463 -0.16540053 -0.26429206 0.18549767
-0.224485 -0.23741311 -0.2798472 0.16025743 -0.013487101 -0.023013368 0.0038807413 -0.22265266
0.20987688 0.124559194 -0.15105154 0.027481403 -0.0074867844 -0.24954966 -0.14018726 0.2100592
0.17676178 -0.14907032 -0.16443911 -0.04565817 -0.061340213 0.14474347 -0.13258095 -0.0060607507
0.009791046 -0.2596535 0.15200885 0.09575625 -0.21711151 0.051940974 0.16606079 0.18048736
0.20068443 -0.056565255 -0.2193921 0.14253533 0.24745739 0.08313218 0.2558446 -0.16117688
-0.03741008 0.001953206 0.2795836 0.023142552 -0.16564225 -0.08648325 0.13070518 0.1322718
00000000: fe27 60be c0e8 18be 6e55 93be 103f 6dbe
00000010: 1003 e53d 6446 0abe d0d3 4e3e 28bc 8dbe
00000020: 176f cfbd 8f20 31be 67ca 9f3d f722 963d
00000030: bd4a fe3d 1f3c 803e bcab 09bd 4c87 873d
00000040: 1971 dd3d b8de 2e3d 2738 293d c2af 3dbe
00000050: d2e4 47be ac30 e9bd beb9 18bd 3699 8b3e
00000060: c59e 67be 612c 8a3e 806d 17be 8ded f6bd
00000070: 134c 493d 53c1 d9bd c78e 383e f47c bc3d
00000080: 572d 04be e07f 783c 5e9a dd3d 5a9d 433e
00000090: 74b7 6c3e 3c46 21be 49ba 80bc 4cd8 3e3d
000000a0: d41c 0e3d 8ebf 653d ed0d 953d 44bb 5bbe
000000b0: 6590 afbd c25e 29be 4a51 87be 1af3 3d3e
000000c0: 65df 65be 6c1c 73be 2248 8fbe 861a 243e
000000d0: 00f9 5cbc 8886 bcbc 0954 7e3b 0fff 63be
000000e0: f7e9 563e e418 ff3d 41ad 1abe ae20 e13c
000000f0: b353 f5bb f289 7fbe 408d 0fbe c219 573e
00000100: 0a01 353e e4a5 18be ba62 28be 1004 3bbd
00000110: e03f 7bbd a237 143e 4dc3 07be 4399 c6bb
00000120: a06a 203c 4ef1 84be 35a8 1b3e da1b c43d
00000130: 7b52 5ebe 0fc0 543d d70b 2a3e aed1 383e
00000140: 3880 4d3e f8b0 67bd 53a8 60be c8f4 113e
00000150: 7865 7d3e 3441 aa3d 10fe 823e 8d0b 25be
00000160: 503b 19bd 5c01 003b 9525 8f3e 7395 bd3c
00000170: 1f9e 29be 211e b1bd 94d7 053e 4272 073e

decoder.6.bias f4 [6]
-0.039506372 -0.05062112 0.13693497 0.10452119 0.21907955 0.085698836
00000000: 6fd1 21bd 1758 4fbd ae38 0c3e 350f d63d
00000010: 6456 603e df82 af3d
